reg_w2.npy (npy, 20128 bytes, 1 tensors)

array (column-major) f4 [500, 10]
0.06890927 -0.09620009 -0.19677998 -0.44713005 0.24588235 0.13501063 -0.35015982 -0.18306975
-0.05068391 -0.25118423 0.18284976 0.19068535 0.20916995 -0.21326973 0.06805366 -0.027640779
0.25859472 0.5678454 0.16094625 0.22338045 0.083446905 -0.20751722 0.021201795 -0.16023123
0.2361947 0.61199105 0.35646245 0.37617674 0.03216566 0.97983086 0.03566011 1.0134996
0.28641298 0.24062423 -0.29576993 0.0832444 -0.045822337 0.15955974 -0.15782684 -0.16256662
0.07374921 -0.21612208 0.0447469 -0.10455378 -0.09784676 -0.7774865 -0.054576296 0.17570056
0.057828415 0.00870249 -0.36484283 -0.15462598 0.106330715 0.076881245 0.124492936 0.117367126
-0.5701602 0.14542575 0.7059084 -0.23837306 -0.052908152 -0.9159798 -0.15706085 -0.07711855
0.090802856 0.1696388 0.083451346 -0.16238451 -0.20413297 -1.3457358 0.6195225 0.17463532
-0.52329385 -0.116464294 0.22189404 0.6492498 0.28543502 -0.5495732 -0.061349783 0.5704521
-0.6470283 -0.24914153 -0.017642695 0.047213767 0.33834857 -0.061993584 0.0150040435 -0.07718665
0.20386323 0.11613024 0.23052944 0.060499378 0.06395871 -0.520679 -0.20652802 0.6005289
0.17748827 1.1139077 -0.016694449 0.25743747 -0.6857246 -0.050543178 -0.09982062 -0.031408116
0.12627149 0.11541015 -0.17311634 -0.40345585 -0.2067132 0.29232255 -0.5964694 -0.14113718
-0.13652441 0.63321495 0.41343 -0.029278038 0.26557255 0.0153985135 0.06862717 -0.2932314
-0.045304023 -0.28934503 -1.216159 -0.09353672 -0.7665676 -0.09677864 -0.03674076 -0.25357652
0.19497663 -0.12684296 0.103489526 -0.13464093 0.07950096 -0.10115092 -0.102061704 -0.1903022
-0.6363049 -0.10575937 -0.13000892 -0.14142323 -0.04398143 -0.08586016 -0.09115169 -0.13781926
0.26458907 -0.4941282 0.100332886 -0.066440664 -0.83392364 0.07334999 0.048932 0.47749752
-0.2769034 -0.6838553 -0.20971864 -0.04815753 -0.040573563 0.0884071 -1.0504892 0.1932548
-0.17077425 0.4387052 0.05548388 -0.004888079 1.0475982 -0.055685904 -0.4026142 0.12955262
-0.032842238 0.21968384 -0.016274167 -0.24078624 0.33860186 0.0034727096 0.047590353 0.07118254
0.022529742 0.25680274 0.61783636 -0.037054587 -0.15714541 -0.004473941 -0.15064994 0.20225321
0.14207536 0.1484786 0.037802044 1.2141485 -0.08055291 -0.18158223 -0.1115629 -0.3702275
-0.55317825 0.09801855 -1.2159445 0.07358684 0.9632053 -0.084272265 -0.010854554 -0.11948119
-0.04278262 0.12875064 -0.6497646 -0.42021576 0.11192643 0.36106068 -0.008923024 0.06678206
-0.038243115 0.047537144 -0.109368905 -0.11472663 -0.1404769 -0.124858096 0.47910053 -0.15194282
-0.20895751 -0.014716881 -0.2399475 -0.12867627 -0.04125126 0.27764145 0.009711325 -1.0059332
-0.016485797 0.1582318 -0.54243135 -0.3225544 0.010650473 -0.14144363 -0.25066942 0.15312491
0.14435095 -0.06410501 0.001446625 -0.07307121 0.39231306 -0.11288464 -0.012677803 0.14809701
-0.13139871 -0.20153372 -0.11166299 -0.5368622 0.17027338 0.09460825 0.14381368 0.21805237
-0.25648865 1.1670405 -0.2436756 0.16549318 0.3591825 -0.17750852 -0.08436308 0.043950055
00000000: 4e20 8d3d 8e04 c5bd b180 49be 3bee e4be
00000010: 95c8 7b3e 3a40 0a3e 2648 b3be a376 3bbe
00000020: ee99 4fbd 389b 80be f83c 3b3e 0543 433e
00000030: a630 563e 6163 5abe b85f 8b3d ea6e e2bc
00000040: 8766 843e 515e 113f 18cf 243e d8bd 643e
00000050: 36e6 aa3d 657f 54be 63af ad3c a813 24be
00000060: 06dd 713e 72ab 1c3f 3f82 b63e 3d9a c03e
00000070: 24c0 033d 32d6 7a3f 5610 123d 5bba 813f
00000080: b9a4 923e 3366 763e 286f 97be 0a7c aa3d
00000090: 34b0 3bbd a163 233e 5c9d 21be dd77 26be
000000a0: d309 973d 1b4f 5dbe 8748 373d 4b20 d6bd
000000b0: e263 c8bd 5b09 47bf 658b 5fbd d9ea 333e
000000c0: 7ddd 6c3d e394 0e3c aecc babe 4656 1ebe
000000d0: ebc3 d93d ea73 9d3d 27f6 fe3d 2d5e f03d
000000e0: 05f6 11bf 7dea 143e 6ab6 343f 1118 74be
000000f0: 38b6 58bd a77d 6abf 8fd4 20be 55f0 9dbd
00000100: d9f6 b93d cbb5 2d3e 8ae8 aa3d 2048 26be
00000110: 3c08 51be 1241 acbf 0799 1e3f 9ad3 323e
00000120: 96f6 05bf d584 eebd 3138 633e 3c35 263f
00000130: 8a24 923e d4b0 0cbf e949 7bbd 2609 123f
00000140: a6a3 25bf f51e 7fbe 6a87 90bc 3963 413d
00000150: 063c ad3e fcec 7dbd 85d3 753c 0914 9ebd
00000160: 86c1 503e b1d5 ed3d e90f 6c3e 32ce 773d
00000170: c9fc 823d 384b 05bf 157c 53be 43bc 193f
00000180: 7cbf 353e 8794 8e3f ccc2 88bc d8ce 833e
00000190: a68b 2fbf 5d06 4fbd c16e ccbd cca5 00bd
000001a0: 504d 013e 285c ec3d 6945 31be c491 cebe
000001b0: a0ac 53be 4dab 953e 38b2 18bf 4486 10be
000001c0: 0ecd 0bbe 601a 223f 19ad d33e 7fd8 efbc
000001d0: 20f9 873e 0c4a 7c3c 678c 8c3d 6d22 96be
000001e0: b690 39bd 0825 94be 19ab 9bbf 2e90 bfbd
000001f0: c63d 44bf e133 c6bd 7b7d 16bd c8d4 81be
00000200: f4a7 473e 1fe3 01be 51f2 d33d 50df 09be
00000210: 66d1 a23d 3728 cfbd ba05 d1bd 94de 42be
00000220: e1e4 22bf 5e98 d8bd 0f21 05be 40d1 10be
00000230: df25 34bd 74d7 afbd bdad babd 7e20 0dbe
00000240: 3878 873e 5ffe fcbe 547b cd3d 0b12 88bd
00000250: 057c 55bf 8538 963d ec6c 483d 8e7a f43e
00000260: 48c6 8dbe 2411 2fbf 7cc0 56be d540 45bd
00000270: 7730 26bd c80e b53d 6e76 86bf 96e4 453e
00000280: 72df 2ebe f89d e03e 1143 633d 2e2c a0bb
00000290: b317 863f e716 64bd 7323 cebe 71a9 043e
000002a0: 9585 06bd cdf4 603e 6751 85bc ab90 76be
000002b0: 395d ad3e 6696 633b 1aee 423d 27c8 913d
000002c0: 4b90 b83c a67b 833e 862a 1e3f 8dc6 17bd
000002d0: baea 20be 239a 92bb fa43 1abe 771b 4f3e
000002e0: 347c 113e c60a 183e 51d6 1a3d 3869 9b3f
000002f0: edf8 a4bd b1f0 39be 177b e4bd 758e bdbe
00000300: 179d 0dbf f3bd c83d 12a4 9bbf b2b4 963d
00000310: 9f94 763f f096 acbd 4dd7 31bc 8eb2 f4bd
00000320: d43c 2fbd 35d7 033e f956 26bf 8526 d7be
00000330: af39 e53d f2dc b83e e031 12bc 08c5 883d
00000340: d0a4 1cbd 4fb6 423d cefc dfbd ccf5 eabd
00000350: 2dd9 0fbe 9ab5 ffbd aa4c f53e e696 1bbe
00000360: f5f8 55be 131f 71bc ccb4 75be b6c3 03be
00000370: 15f7 28bd 0527 8e3e 401c 1f3c 6bc2 80bf
00000380: 390d 87bc 8407 223e c8dc 0abf da25 a5be
00000390: 527f 2e3c 99d6 10be be57 80be c7cc 1c3e
000003a0: bcd0 133e 7d49 83bd ae9c bd3a 5ca6 95bd
000003b0: 42dd c83e 1030 e7bd 8fb6 4fbc bea6 173e
000003c0: 628d 06be db5e 4ebe 91af e4bd cd6f 09bf
000003d0: 255c 2e3e f8c1 c13d e543 133e 1f49 5f3e
000003e0: 7b52 83be 9561 953f 1986 79be 0b77 293e
000003f0: c5e6 b73e cbc4 35be 8dc6 acbd f904 343d
