w1.npy (npy, 12928 bytes, 1 tensors)

array (column-major) f4 [64, 50]
000000 93 00 e0 bd e8 e7 7a 3d a0 67 3d 3e a4 61 05 3e
       -0.109376095 0.06125632 0.18496561 0.13025528
000010 ba 2b 2f be e1 17 11 3e b7 a0 e1 3e 33 9f 0c be
       -0.17106524 0.14169265 0.44067928 -0.13732605
000020 46 52 1e be 21 25 1b bd 8e 71 99 be 79 b2 94 bd
       -0.15461072 -0.037877206 -0.29969448 -0.072606035
000030 27 41 2b 3e fa b3 d6 be 34 7e 84 bd 78 03 a6 3c
       0.16724072 -0.41934186 -0.06469384 0.020265326
000040 21 2f 2e bd f7 e7 64 3e 2b c2 12 bd 4a de d7 3d
       -0.042525414 0.22354113 -0.035829704 0.10540445
000050 0d 8c 82 3e f0 a5 0a bf 9f 89 ab bd a5 09 2e be
       0.25497475 -0.5415945 -0.083758585 -0.16995867
000060 83 50 35 be 60 13 bf 3e ce fc e0 3e 19 f4 1a 3f
       -0.17706494 0.3731947 0.43942875 0.60528713
000070 f3 f4 3c 3f 5b 45 04 3e 07 60 bc 3e 4a a4 f9 bd
       0.7381126 0.12917082 0.36792013 -0.12189539
000080 59 6b 2b be fd 2f 0f 3f 62 f8 23 3e d3 23 1a bf
       -0.16740169 0.559326 0.1601272 -0.60210913
000090 aa 66 1a 3e e9 9d 26 3f 5c c9 40 3f 8a 6b 1c be
       0.15078226 0.650847 0.7530725 -0.15275398
0000a0 00 a0 49 be 0d b4 a4 be 34 ef 27 bf 0d 7b 3f 3e
       -0.19689941 -0.32168618 -0.6559937 0.18699284
0000b0 de 11 e9 be 68 22 c4 bd dd 04 b1 3e 19 ee 4b be
       -0.45521444 -0.09576875 0.34574023 -0.19915046
0000c0 07 f8 fb bd de f2 3b 3e e4 a8 7e be 6a 4d 23 3f
       -0.12303167 0.18354365 -0.24869114 0.6379
0000d0 68 a4 e0 bd 4b 61 ab 3d 1f ff 45 3d c1 b6 46 3e
       -0.10968858 0.083681665 0.048339006 0.19405653
0000e0 2c 35 96 3c c6 19 25 3e 1a d4 07 3f 37 68 a2 3d
       0.018335901 0.16123113 0.53058016 0.07930034
0000f0 0b 0c 51 3e 2b a3 36 3b 04 39 2d 3e cc 28 c8 bd
       0.2041475 0.0027868252 0.16916281 -0.097734064
000100 76 24 86 3d 3f bb 04 be 8c 74 77 3b a5 cf cd bc
       0.06549923 -0.12962054 0.0037758676 -0.025123427
000110 f8 77 c9 3d b6 8f 04 3e a3 cb 77 bd 02 7f 2b bd
       0.09837335 0.12945446 -0.060496937 -0.04186917
000120 5c 68 41 3d 74 3a 62 bc 0d ee 55 3d 50 cf fd 3d
       0.047218665 -0.013807882 0.052228976 0.12393057
000130 35 39 b3 3c 1b ba 8a 3d 69 b4 2e bd eb 90 82 bd
       0.021877864 0.06773778 -0.04265252 -0.06375297
000140 e3 dd 9d bd 05 ea 05 be 6a c9 c7 3d 46 46 1e 3d
       -0.07708337 -0.13077553 0.097552136 0.038641237
000150 4c ea 1a 3d f7 f8 dd 3d f8 be 01 be 67 2f 17 be
       0.0378211 0.10838502 -0.12670505 -0.14764176
000160 ca 46 e0 bd 1f c9 86 ba 8c 7c 44 bd 33 8c bd 3b
       -0.10951002 -0.0010283327 -0.04797034 0.0057845353
000170 84 73 cf bc b8 f1 b5 bd d8 fd 1b bd ee 8c b4 bd
       -0.025323637 -0.08883995 -0.03808388 -0.08815943
000180 b7 5c c9 bd 13 b4 42 bd 87 f6 2f 3c 1d ae 96 3d
       -0.09832137 -0.047535013 0.010739929 0.07357428
000190 c1 ca 3c 3c 35 f8 04 3e 41 57 05 3c 29 0f 31 be
       0.01152295 0.12985308 0.008138479 -0.1729094
0001a0 96 2f 27 be 1a 1e 3b bd 65 ab a8 3b fd 31 aa 3d
       -0.16326746 -0.045683004 0.005147385 0.08310316
0001b0 f5 f9 12 3e 38 69 d0 3d 1e 79 dd bd ff 35 0e be
       0.14353164 0.10176319 -0.10814117 -0.13887785
0001c0 d9 af 06 bb 11 27 62 3d fc e4 a2 3c 87 e8 2e 3d
       -0.002055159 0.055213038 0.019884579 0.042702224
0001d0 7a 5e 47 3a f3 61 c3 3d 7d 00 5f bd e3 69 fd bd
       0.00076053257 0.09540167 -0.054443825 -0.12373712
0001e0 67 fe 2a be 7f ca 89 bc f0 cc b2 3b 32 e1 d1 3d
       -0.1669861 -0.01682019 0.0054565594 0.10248031
0001f0 2a 82 20 3e 0c b3 b9 3c a1 bb 9b bc 74 19 f2 bd
       0.15674654 0.022668384 -0.019010367 -0.11821261
000200 d9 54 a0 bd 8b 89 34 3c 43 90 f1 bc e5 de 2d 3d
       -0.078286834 0.011019121 -0.029487735 0.042448897
000210 5c 34 4e 3e 60 24 98 3e bc db 05 3f 5b 20 36 be
       0.20137161 0.29715252 0.52288413 -0.1778578
000220 ae ed b6 bd 72 49 36 3d b7 3a 25 be e6 89 ed 3d
       -0.089320526 0.044503637 -0.16135679 0.11598568
000230 bc f4 8d 3e 9a e3 02 be 1f da ae 3d 4e 78 09 be
       0.2772578 -0.12782136 0.08537697 -0.13424799
000240 ab db 52 be f0 b8 53 be ee f8 02 be 90 16 b8 bd
       -0.20591609 -0.20676017 -0.12790272 -0.089886785
000250 f1 d1 86 be dd 69 3b bf 6e 56 48 3e 86 7d 1f bd
       -0.26332048 -0.7320841 0.1956422 -0.038938068
000260 4f 86 1c be e4 9c c0 bd 12 57 59 3e a0 5f f2 3e
       -0.1528561 -0.094049245 0.21224621 0.4733858
000270 6b 0d 15 3f b3 0a 00 3e c1 21 a6 be 79 bd 8d bd
       0.582236 0.12504081 -0.32447627 -0.06920905
000280 9a 87 01 be dc 46 db bd 60 25 6e be b0 76 04 3d
       -0.12649384 -0.10706875 -0.23256445 0.03233975
000290 58 93 20 3f 2c 51 7a 3e 04 57 1c 3c 5c b5 82 be
       0.6272483 0.24445027 0.0095422305 -0.2552899
0002a0 f3 ee 31 bd 6e 54 5d 3c 16 60 c8 be 4c 5b 8c 3e
       -0.04344077 0.013508899 -0.39135808 0.27413404
0002b0 d1 6b db bd 9c 86 d7 3e 73 08 92 be ac 95 18 be
       -0.10713924 0.42094886 -0.2852207 -0.14900845
0002c0 8d e1 69 be dc 4c 9a 3e 8d 98 26 bf a7 0e 2e 3f
       -0.22839947 0.30136764 -0.65076524 0.6799111
0002d0 43 18 e1 be 07 7d b8 3e 0f eb 16 3e 98 e7 02 be
       -0.43963823 0.36032888 0.14738105 -0.12783659
0002e0 7c 8d 83 bd 1b b3 9d bd db 4c e5 3e da b8 1a be
       -0.064234704 -0.07700177 0.447852 -0.15109578
0002f0 22 6a fc 3e 7d 22 b6 3e 5a e8 a7 3e 1b 84 31 bd
       0.49299723 0.35573187 0.32794458 -0.043338876
000300 4e ce 9c 3d 0f ea e1 3d 26 f2 f8 3e ef 6e 84 bc
       0.07656537 0.11030971 0.48622245 -0.016166179
000310 c6 cb b0 be b2 23 64 3f 9e af e9 3e cc 0c 6f 3c
       -0.34530467 0.89116967 0.45641798 0.014590453
000320 06 8f 88 3d d3 9c cb 3d f1 43 b3 3e 14 81 7d 3e
       0.066679046 0.09942021 0.35012773 0.2475627
000330 d8 81 1b 3f 22 c4 2c 3f b6 d0 f3 3d 0b 17 ad 3d
       0.60745 0.67486775 0.11905043 0.08451661
000340 ba 94 0b 3e f8 e5 32 3f ab 16 bf be 78 3c e4 3d
       0.13630953 0.69882154 -0.37321982 0.11144346
000350 92 32 bb 3e 3c de 75 be 84 c7 0d 3e f9 d7 d4 bd
       0.3656202 -0.24010557 0.1384564 -0.10392756
000360 75 d5 18 3e 1b 47 05 bf ce d0 3d bf 2c 64 8b bd
       0.14925177 -0.52061623 -0.74146736 -0.06806216
000370 68 91 d9 3c 48 c1 07 bf 85 11 32 bf 88 8d 84 bd
       0.026558593 -0.530293 -0.6955798 -0.064723074
000380 7d 57 2a 3d fc 17 2c bf 74 80 01 be a6 45 96 3e
       0.04158734 -0.672241 -0.12646657 0.29350013
000390 c2 54 ef 3e 72 34 d4 be b0 cb 1c be 27 11 77 3d
       0.46744353 -0.41446263 -0.15312076 0.060319092
0003a0 c2 26 45 3d 46 5c 50 bf 0b 24 cb ba 44 18 9b 3e
       0.048132665 -0.813908 -0.0015498413 0.3029195
0003b0 53 b1 31 3e 75 00 5c be fd 77 22 bf 56 65 54 bc
       0.173528 -0.2148455 -0.6346434 -0.0129636135
0003c0 47 f1 ec 3d 2f a0 35 be 3d 60 a6 3c 0f eb 68 3e
       0.115694575 -0.17736886 0.020309562 0.22745918
0003d0 10 a5 69 3e 8d 92 57 3e db 1d 6d 3d b0 c7 77 3e
       0.22816873 0.21051998 0.0578898 0.24197268
0003e0 2a 0c ab bd 01 78 f1 3d 99 de 91 be 9f dc 6a 3e
       -0.083519295 0.11790467 -0.2849014 0.22935723
0003f0 4a 7f 3c bc a1 b7 1d 3e 0c 0d db 3c 1a fd 80 3e
       -0.011504957 0.1540208 0.02673962 0.251931
