w2.npy (npy, 2128 bytes, 1 tensors)

array (column-major) f4 [50, 10]
-0.36035094 -0.30695382 -1.0723861 -0.46502692 -0.36507833 0.09076867 -0.037402786 0.54322183
0.40297794 -0.29957584 -0.50699383 0.4132636 -0.15318842 -0.22539048 -0.0029274477 -0.35431775
0.27113086 0.2143493 0.10045821 -0.242668 0.17472382 0.6289548 0.30211574 0.53356683
-0.021805592 0.09969463 -0.005552851 0.11841119 0.014701899 0.93142664 -0.50496024 0.2764661
0.011210399 0.044455282 0.10124673 -0.5287929 0.11390744 0.33342016 -0.050136995 -0.0061816527
-0.14258789 -0.49797848 0.15018988 -0.1954189 -0.26109347 0.41653228 -0.13936158 0.25133952
-0.34412885 -0.19774419 0.24594775 -0.28222033 -0.042877406 0.5153287 -0.32203713 -0.092330575
-0.55744255 -0.09656511 -0.14904286 0.0036041518 -0.5058552 -0.4520588 0.6965078 -0.5930148
-0.32570326 -0.51748616 -0.4255316 -0.09148617 -0.12191399 -0.30919817 -0.4100588 0.11744021
0.00040474485 0.0075585116 0.0647968 0.34497818 0.49160427 -0.41478592 0.63340473 0.26410735
0.512876 -0.4900795 0.5228191 -0.69534594 0.07862181 0.12524736 0.1255606 -0.5780756
-0.5943301 -0.3926924 0.20439363 -0.2204938 0.7034971 -0.1435058 -0.3191046 0.30841762
-0.9232451 0.54248047 -0.3390085 0.0528268 -0.3940057 -0.37674943 0.21337338 0.096595965
-0.4239293 1.9858465 -0.13449651 0.14343195 -0.33849773 0.27537736 0.16685279 0.116247825
0.37433815 0.39008906 -0.46316049 -0.025364196 0.5091231 -0.07808132 0.00058337586 -0.16804843
-0.00050193915 -0.2749133 -0.34430873 -0.1757867 0.026904617 0.33286658 -0.4041141 0.21042234
-0.19092569 -0.025990978 -0.35539344 0.24752347 -0.553915 0.115161225 -0.6972256 -1.1531878
-0.030026624 -0.231905 0.19538362 -0.077581435 0.18860629 -0.44741544 -0.16081767 0.20218505
0.10502775 0.4049606 -0.5374504 0.058520585 -0.3320878 0.48892432 -0.11123973 -0.3305949
-0.015143412 0.026754413 -0.33615878 -0.13595793 0.2606296 -0.5381702 0.5972245 0.42571768
-0.21209706 0.18099137 -0.2045279 0.13861533 0.100562826 0.27491495 0.19121815 0.019416288
0.23374757 -0.1793522 0.28573862 0.14180481 0.61330014 -0.17094727 -0.19185235 -0.3816044
0.36253983 0.14599279 1.150557 0.30785534 -0.18116316 -0.69109607 -0.71870196 0.0596375
-0.636611 0.30892894 0.95983905 -0.48913497 0.07984718 -0.024506066 -0.18174125 -0.20560986
0.50952 0.53551614 0.15158324 0.22707045 0.4288758 -0.41708624 -0.41458806 -0.68483937
-0.113866776 -0.22566022 -0.12344973 -0.48514926 -0.37087616 0.35890585 -0.061505668 0.2605781
0.5632521 -0.20125777 0.72034353 -0.5735584 0.603984 -0.26403344 0.42690656 0.86400205
-0.02845875 -0.44486633 0.776128 -0.29343385 -0.22069871 -0.5074033 0.029099876 0.5366348
-0.0584914 0.09444169 0.73550636 0.061907984 0.0321456 -0.28133824 0.3553799 0.12370833
-0.4217079 -0.16701293 -0.30202422 -0.28785133 -0.27657908 0.41612846 1.053529 0.1378717
-0.5358072 -0.28820834 -0.13305771 -0.19708529 -0.015442728 0.29383016 0.27406654 0.34420013
-0.2558748 0.10228976 -0.098267116 -0.3290902 0.0018973609 0.20600946 -0.4140736 0.27607048
00000000: eb7f b8be 0d29 9dbe f343 89bf 0218 eebe
00000010: 8ceb babe ede4 b93d aa33 19bd 9610 0b3f
00000020: 2053 ce3e 0162 99be 59ca 01bf 4997 d33e
00000030: 6ddd 1cbe c3cc 66be 6cda 3fbb 2369 b5be
00000040: aad1 8a3e 627e 5b3e 09bd cd3d f67d 78be
00000050: cdea 323e 2f03 213f eaae 9a3e d697 083f
00000060: a4a1 b2bc b32c cc3d b1f4 b5bb 9181 f23d
00000070: 3ce0 703c fa71 6e3f 1345 01bf f78c 8d3e
00000080: d2ab 373c be16 363d 725a cf3d f95e 07bf
00000090: 4e48 e93d 0cb6 aa3e 735c 4dbd 768f cabb
000000a0: 8f02 12be 09f7 febe 60cb 193e e41b 48be
000000b0: 0bae 85be b843 d53e cdb4 0ebe 93af 803e
000000c0: a831 b0be 747d 4abe bad9 7b3e 2f7f 90be
000000d0: 38a0 2fbd 95ec 033f 0de2 a4be d017 bdbd
000000e0: 8eb4 0ebf eec3 c5bd b19e 18be a233 6c3b
000000f0: ba7f 01bf 4074 e7be 564e 323f d1cf 17bf
00000100: 94c2 a6be f979 04bf 47df d9be 1a5d bbbd
00000110: 0bae f9bd 394f 9ebe 3af3 d1be 7e84 f03d
00000120: ef33 d439 64ad f73b 2fb4 843d fba0 b03e
00000130: 8eb3 fb3e d25e d4be d026 223f 1439 873e
00000140: d74b 033f b3eb fabe 79d7 053f 3102 32bf
00000150: 7904 a13d d840 003e f592 003e c3fc 13bf
00000160: 0426 18bf fa0e c9be 904c 513e 20c9 61be
00000170: 6318 343f 2ff3 12be ae61 a3be eae8 9d3e
00000180: ca59 6cbf 00e0 0a3f 8692 adbe ea60 583d
00000190: 1dbb c9be 4de5 c0be 8d7e 5a3e 1bd4 c53d
000001a0: 430d d9be 3830 fe3f 74b9 09be d3df 123e
000001b0: 934f adbe 43fe 8c3e 75db 2a3e 5713 ee3d
000001c0: 40a9 bf3e c1b9 c73e 5f23 edbe 93c8 cfbc
000001d0: e455 023f 19e9 9fbd b1ed 183a e314 2cbe
000001e0: 9194 03ba 70c1 8cbe 3c49 b0be 6e01 34be
000001f0: 1267 dc3c 7d6d aa3e 0be8 cebe f478 573e
00000200: 0682 43be 08eb d4bc 21f6 b5be cb76 7d3e
00000210: 60cd 0dbf a6d9 eb3d 607d 32bf a89b 93bf
00000220: 65fa f5bc 8178 6dbe a512 483e 04e3 9ebd
00000230: 0222 413e a313 e5be 63ad 24be 9909 4f3e
00000240: ca18 d73d ff56 cf3e 5996 09bf 48b3 6f3d
00000250: 6a07 aabe 4a54 fa3e a8d1 e3bd bc43 a9be
00000260: 131c 78bc 122c db3c 011d acbe 8e38 0bbe
00000270: 3e71 853e 86c5 09bf b4e3 183f abf7 d93e
00000280: f92f 59be cd55 393e c36f 51be 2df1 0d3e
00000290: e2f3 cd3d a7c1 8c3e b1ce 433e e80e 9f3c
000002a0: 865b 6f3e 1aa8 37be 554c 923e 4835 113e
000002b0: 3d01 1d3f cd0c 2fbe f174 44be a761 c3be
000002c0: d29e b93e 227f 153e 7445 933f 379f 9d3e
000002d0: d682 39be aceb 30bf dafc 37bf 7446 743d
000002e0: f0f8 22bf ef2b 9e3e 03b8 753f e66f fabe
000002f0: eb86 a33d f2c0 c8bc 611a 3abe 648b 52be
00000300: e76f 023f 9617 093f a338 1b3e 2885 683e
00000310: 9c95 db3e 548c d5be e344 d4be a251 2fbf
00000320: fc32 e9bd 7913 67be 36d3 fcbd 7c65 f8be
00000330: 7be3 bdbe 82c2 b73e 5eed 7bbd 7e6a 853e
00000340: 4a31 103f 8416 4ebe 6f68 383f b9d4 12bf
00000350: b29e 1a3f 642f 87be 7f93 da3e 3d2f 5d3f
00000360: 5322 e9bc 85c5 e3be 53b0 463f f63c 96be
00000370: d8fe 61be 2fe5 01bf dd62 ee3c e660 093f
00000380: ae94 6fbd a56a c13d 254a 3c3f 3a93 7d3d
00000390: 1bab 033d 910b 90be 5bf4 b53e cb5a fd3d
000003a0: 19ea d7be 7005 2bbe eba2 9abe 4061 93be
000003b0: c69b 8dbe ca0e d53e 0ada 863f 3d2e 0d3e
000003c0: a92a 09bf 0b90 93be 4840 08be bad0 49be
000003d0: 7f03 7dbc e870 963e 7352 8c3e 003b b03e
000003e0: 0602 83be 4b7d d13d 4540 c9bd 837e a8be
000003f0: deb0 f83a 25f4 523e 7401 d4be 1c59 8d3e
